_________________________________________________________________
Layer (type)                 Output Shape              Param #   
=================================================================
conv2d_1 (Conv2D)            (None, 128, 128, 8)       224       
_________________________________________________________________
leaky_re_lu_1 (LeakyReLU)    (None, 128, 128, 8)       0         
_________________________________________________________________
conv2d_2 (Conv2D)            (None, 128, 128, 8)       584       
_________________________________________________________________
leaky_re_lu_2 (LeakyReLU)    (None, 128, 128, 8)       0         
_________________________________________________________________
max_pooling2d_1 (MaxPooling2 (None, 64, 64, 8)         0         
_________________________________________________________________
conv2d_3 (Conv2D)            (None, 64, 64, 16)        1168      
_________________________________________________________________
leaky_re_lu_3 (LeakyReLU)    (None, 64, 64, 16)        0         
_________________________________________________________________
conv2d_4 (Conv2D)            (None, 64, 64, 16)        2320      
_________________________________________________________________
leaky_re_lu_4 (LeakyReLU)    (None, 64, 64, 16)        0         
_________________________________________________________________
max_pooling2d_2 (MaxPooling2 (None, 32, 32, 16)        0         
_________________________________________________________________
conv2d_5 (Conv2D)            (None, 32, 32, 32)        4640      
_________________________________________________________________
leaky_re_lu_5 (LeakyReLU)    (None, 32, 32, 32)        0         
_________________________________________________________________
conv2d_6 (Conv2D)            (None, 32, 32, 32)        9248      
_________________________________________________________________
leaky_re_lu_6 (LeakyReLU)    (None, 32, 32, 32)        0         
_________________________________________________________________
max_pooling2d_3 (MaxPooling2 (None, 16, 16, 32)        0         
_________________________________________________________________
conv2d_7 (Conv2D)            (None, 16, 16, 64)        18496     
_________________________________________________________________
leaky_re_lu_7 (LeakyReLU)    (None, 16, 16, 64)        0         
_________________________________________________________________
conv2d_8 (Conv2D)            (None, 16, 16, 64)        36928     
_________________________________________________________________
leaky_re_lu_8 (LeakyReLU)    (None, 16, 16, 64)        0         
_________________________________________________________________
max_pooling2d_4 (MaxPooling2 (None, 8, 8, 64)          0         
_________________________________________________________________
conv2d_9 (Conv2D)            (None, 8, 8, 128)         73856     
_________________________________________________________________
leaky_re_lu_9 (LeakyReLU)    (None, 8, 8, 128)         0         
_________________________________________________________________
conv2d_10 (Conv2D)           (None, 8, 8, 128)         147584    
_________________________________________________________________
leaky_re_lu_10 (LeakyReLU)   (None, 8, 8, 128)         0         
_________________________________________________________________
max_pooling2d_5 (MaxPooling2 (None, 4, 4, 128)         0         
_________________________________________________________________
dropout_1 (Dropout)          (None, 4, 4, 128)         0         
_________________________________________________________________
flatten_1 (Flatten)          (None, 2048)              0         
_________________________________________________________________
dense_1 (Dense)              (None, 256)               524544    
_________________________________________________________________
leaky_re_lu_11 (LeakyReLU)   (None, 256)               0         
_________________________________________________________________
dropout_2 (Dropout)          (None, 256)               0         
_________________________________________________________________
dense_2 (Dense)              (None, 1)                 257       
=================================================================
Total params: 819,849
Trainable params: 819,849
Non-trainable params: 0
_________________________________________________________________
None

Epoch 1/30
Epoch 00001: val_loss improved from inf to 0.02254, saving model to data/model.h5
 - 65s - loss: 0.0278 - val_loss: 0.0225
Epoch 2/30
Epoch 00002: val_loss improved from 0.02254 to 0.02194, saving model to data/model.h5
…
