_________________________________________________________________
Layer (type)                 Output Shape              Param #   
=================================================================
conv2d_1 (Conv2D)            (None, 64, 320, 8)        224       
_________________________________________________________________
batch_normalization_1 (Batch (None, 64, 320, 8)        32        
_________________________________________________________________
activation_1 (Activation)    (None, 64, 320, 8)        0         
_________________________________________________________________
conv2d_2 (Conv2D)            (None, 64, 320, 8)        584       
_________________________________________________________________
batch_normalization_2 (Batch (None, 64, 320, 8)        32        
_________________________________________________________________
activation_2 (Activation)    (None, 64, 320, 8)        0         
_________________________________________________________________
max_pooling2d_1 (MaxPooling2 (None, 32, 160, 8)        0         
_________________________________________________________________
dropout_1 (Dropout)          (None, 32, 160, 8)        0         
_________________________________________________________________
conv2d_3 (Conv2D)            (None, 32, 160, 16)       1168      
_________________________________________________________________
batch_normalization_3 (Batch (None, 32, 160, 16)       64        
_________________________________________________________________
activation_3 (Activation)    (None, 32, 160, 16)       0         
_________________________________________________________________
conv2d_4 (Conv2D)            (None, 32, 160, 16)       2320      
_________________________________________________________________
batch_normalization_4 (Batch (None, 32, 160, 16)       64        
_________________________________________________________________
activation_4 (Activation)    (None, 32, 160, 16)       0         
_________________________________________________________________
max_pooling2d_2 (MaxPooling2 (None, 16, 80, 16)        0         
_________________________________________________________________
dropout_2 (Dropout)          (None, 16, 80, 16)        0         
_________________________________________________________________
conv2d_5 (Conv2D)            (None, 16, 80, 32)        4640      
_________________________________________________________________
batch_normalization_5 (Batch (None, 16, 80, 32)        128       
_________________________________________________________________
activation_5 (Activation)    (None, 16, 80, 32)        0         
_________________________________________________________________
conv2d_6 (Conv2D)            (None, 16, 80, 32)        9248      
_________________________________________________________________
batch_normalization_6 (Batch (None, 16, 80, 32)        128       
_________________________________________________________________
activation_6 (Activation)    (None, 16, 80, 32)        0         
_________________________________________________________________
max_pooling2d_3 (MaxPooling2 (None, 8, 40, 32)         0         
_________________________________________________________________
dropout_3 (Dropout)          (None, 8, 40, 32)         0         
_________________________________________________________________
conv2d_7 (Conv2D)            (None, 8, 40, 64)         18496     
_________________________________________________________________
batch_normalization_7 (Batch (None, 8, 40, 64)         256       
_________________________________________________________________
activation_7 (Activation)    (None, 8, 40, 64)         0         
_________________________________________________________________
conv2d_8 (Conv2D)            (None, 8, 40, 64)         36928     
_________________________________________________________________
batch_normalization_8 (Batch (None, 8, 40, 64)         256       
_________________________________________________________________
activation_8 (Activation)    (None, 8, 40, 64)         0         
_________________________________________________________________
max_pooling2d_4 (MaxPooling2 (None, 4, 20, 64)         0         
_________________________________________________________________
dropout_4 (Dropout)          (None, 4, 20, 64)         0         
_________________________________________________________________
flatten_1 (Flatten)          (None, 5120)              0         
_________________________________________________________________
dense_1 (Dense)              (None, 128)               655488    
_________________________________________________________________
batch_normalization_9 (Batch (None, 128)               512       
_________________________________________________________________
activation_9 (Activation)    (None, 128)               0         
_________________________________________________________________
dropout_5 (Dropout)          (None, 128)               0         
_________________________________________________________________
dense_2 (Dense)              (None, 1)                 129       
=================================================================
Total params: 730,697
Trainable params: 729,961
Non-trainable params: 736
_________________________________________________________________
None

Epoch 1/10
 - 76s - loss: 1.9327 - val_loss: 0.6841
Epoch 2/10
 - 72s - loss: 1.7255 - val_loss: 0.3215
Epoch 3/10
 - 72s - loss: 1.6481 - val_loss: 0.2327
Epoch 4/10
 - 72s - loss: 1.4788 - val_loss: 0.1517
…
