_________________________________________________________________
Layer (type)                 Output Shape              Param #   
=================================================================
conv2d_1 (Conv2D)            (None, 32, 32, 8)         224       
_________________________________________________________________
leaky_re_lu_1 (LeakyReLU)    (None, 32, 32, 8)         0         
_________________________________________________________________
dropout_1 (Dropout)          (None, 32, 32, 8)         0         
_________________________________________________________________
conv2d_2 (Conv2D)            (None, 32, 32, 8)         584       
_________________________________________________________________
leaky_re_lu_2 (LeakyReLU)    (None, 32, 32, 8)         0         
_________________________________________________________________
max_pooling2d_1 (MaxPooling2 (None, 16, 16, 8)         0         
_________________________________________________________________
dropout_2 (Dropout)          (None, 16, 16, 8)         0         
_________________________________________________________________
conv2d_3 (Conv2D)            (None, 16, 16, 16)        1168      
_________________________________________________________________
leaky_re_lu_3 (LeakyReLU)    (None, 16, 16, 16)        0         
_________________________________________________________________
dropout_3 (Dropout)          (None, 16, 16, 16)        0         
_________________________________________________________________
conv2d_4 (Conv2D)            (None, 16, 16, 16)        2320      
_________________________________________________________________
leaky_re_lu_4 (LeakyReLU)    (None, 16, 16, 16)        0         
_________________________________________________________________
max_pooling2d_2 (MaxPooling2 (None, 8, 8, 16)          0         
_________________________________________________________________
dropout_4 (Dropout)          (None, 8, 8, 16)          0         
_________________________________________________________________
conv2d_5 (Conv2D)            (None, 8, 8, 8)           1160      
_________________________________________________________________
leaky_re_lu_5 (LeakyReLU)    (None, 8, 8, 8)           0         
_________________________________________________________________
max_pooling2d_3 (MaxPooling2 (None, 4, 4, 8)           0         
_________________________________________________________________
dropout_5 (Dropout)          (None, 4, 4, 8)           0         
_________________________________________________________________
conv2d_6 (Conv2D)            (None, 4, 4, 16)          1168      
_________________________________________________________________
leaky_re_lu_6 (LeakyReLU)    (None, 4, 4, 16)          0         
_________________________________________________________________
dropout_6 (Dropout)          (None, 4, 4, 16)          0         
_________________________________________________________________
conv2d_7 (Conv2D)            (None, 4, 4, 16)          2320      
_________________________________________________________________
leaky_re_lu_7 (LeakyReLU)    (None, 4, 4, 16)          0         
_________________________________________________________________
max_pooling2d_4 (MaxPooling2 (None, 2, 2, 16)          0         
_________________________________________________________________
dropout_7 (Dropout)          (None, 2, 2, 16)          0         
_________________________________________________________________
conv2d_8 (Conv2D)            (None, 2, 2, 32)          4640      
_________________________________________________________________
leaky_re_lu_8 (LeakyReLU)    (None, 2, 2, 32)          0         
_________________________________________________________________
dropout_8 (Dropout)          (None, 2, 2, 32)          0         
_________________________________________________________________
conv2d_9 (Conv2D)            (None, 2, 2, 32)          9248      
_________________________________________________________________
leaky_re_lu_9 (LeakyReLU)    (None, 2, 2, 32)          0         
_________________________________________________________________
max_pooling2d_5 (MaxPooling2 (None, 1, 1, 32)          0         
_________________________________________________________________
dropout_9 (Dropout)          (None, 1, 1, 32)          0         
_________________________________________________________________
conv2d_10 (Conv2D)           (None, 1, 1, 64)          18496     
_________________________________________________________________
leaky_re_lu_10 (LeakyReLU)   (None, 1, 1, 64)          0         
_________________________________________________________________
dropout_10 (Dropout)         (None, 1, 1, 64)          0         
_________________________________________________________________
conv2d_11 (Conv2D)           (None, 1, 1, 64)          36928     
_________________________________________________________________
leaky_re_lu_11 (LeakyReLU)   (None, 1, 1, 64)          0         
_________________________________________________________________
max_pooling2d_6 (MaxPooling2 (None, 1, 1, 64)          0         
_________________________________________________________________
dropout_11 (Dropout)         (None, 1, 1, 64)          0         
_________________________________________________________________
flatten_1 (Flatten)          (None, 64)                0         
_________________________________________________________________
dense_1 (Dense)              (None, 32)                2080      
_________________________________________________________________
leaky_re_lu_12 (LeakyReLU)   (None, 32)                0         
_________________________________________________________________
dropout_12 (Dropout)         (None, 32)                0         
_________________________________________________________________
dense_2 (Dense)              (None, 1)                 33        
=================================================================
Total params: 80,369
Trainable params: 80,369
Non-trainable params: 0
_________________________________________________________________
None

Epoch 1/10
 - 89s - loss: 0.0091 - val_loss: 0.0094
Epoch 2/10
 - 75s - loss: 0.0091 - val_loss: 0.0093
Epoch 3/10
 - 70s - loss: 0.0090 - val_loss: 0.0094
Epoch 4/10
 - 76s - loss: 0.0090 - val_loss: 0.0090
…
