_________________________________________________________________
Layer (type)                 Output Shape              Param #   
=================================================================
conv2d_1 (Conv2D)            (None, 64, 320, 16)       448       
_________________________________________________________________
leaky_re_lu_1 (LeakyReLU)    (None, 64, 320, 16)       0         
_________________________________________________________________
conv2d_2 (Conv2D)            (None, 64, 320, 16)       2320      
_________________________________________________________________
leaky_re_lu_2 (LeakyReLU)    (None, 64, 320, 16)       0         
_________________________________________________________________
max_pooling2d_1 (MaxPooling2 (None, 32, 160, 16)       0         
_________________________________________________________________
conv2d_3 (Conv2D)            (None, 32, 160, 32)       4640      
_________________________________________________________________
leaky_re_lu_3 (LeakyReLU)    (None, 32, 160, 32)       0         
_________________________________________________________________
conv2d_4 (Conv2D)            (None, 32, 160, 32)       9248      
_________________________________________________________________
leaky_re_lu_4 (LeakyReLU)    (None, 32, 160, 32)       0         
_________________________________________________________________
max_pooling2d_2 (MaxPooling2 (None, 16, 80, 32)        0         
_________________________________________________________________
conv2d_5 (Conv2D)            (None, 16, 80, 64)        18496     
_________________________________________________________________
leaky_re_lu_5 (LeakyReLU)    (None, 16, 80, 64)        0         
_________________________________________________________________
conv2d_6 (Conv2D)            (None, 16, 80, 64)        36928     
_________________________________________________________________
leaky_re_lu_6 (LeakyReLU)    (None, 16, 80, 64)        0         
_________________________________________________________________
max_pooling2d_3 (MaxPooling2 (None, 8, 40, 64)         0         
_________________________________________________________________
flatten_1 (Flatten)          (None, 20480)             0         
_________________________________________________________________
dense_1 (Dense)              (None, 320)               6553920   
_________________________________________________________________
leaky_re_lu_7 (LeakyReLU)    (None, 320)               0         
_________________________________________________________________
dense_2 (Dense)              (None, 160)               51360     
_________________________________________________________________
leaky_re_lu_8 (LeakyReLU)    (None, 160)               0         
_________________________________________________________________
dense_3 (Dense)              (None, 1)                 161       
=================================================================
Total params: 6,677,521
Trainable params: 6,677,521
Non-trainable params: 0
_________________________________________________________________
None

1305
Epoch 1/5
 - 23s - loss: 8.3150 - val_loss: 6.5153
