_________________________________________________________________
Layer (type)                 Output Shape              Param #   
=================================================================
conv2d_1 (Conv2D)            (None, 64, 320, 4)        112       
_________________________________________________________________
leaky_re_lu_1 (LeakyReLU)    (None, 64, 320, 4)        0         
_________________________________________________________________
conv2d_2 (Conv2D)            (None, 64, 320, 4)        148       
_________________________________________________________________
leaky_re_lu_2 (LeakyReLU)    (None, 64, 320, 4)        0         
_________________________________________________________________
max_pooling2d_1 (MaxPooling2 (None, 32, 160, 4)        0         
_________________________________________________________________
conv2d_3 (Conv2D)            (None, 32, 160, 8)        296       
_________________________________________________________________
leaky_re_lu_3 (LeakyReLU)    (None, 32, 160, 8)        0         
_________________________________________________________________
conv2d_4 (Conv2D)            (None, 32, 160, 8)        584       
_________________________________________________________________
leaky_re_lu_4 (LeakyReLU)    (None, 32, 160, 8)        0         
_________________________________________________________________
max_pooling2d_2 (MaxPooling2 (None, 16, 80, 8)         0         
_________________________________________________________________
conv2d_5 (Conv2D)            (None, 16, 80, 16)        1168      
_________________________________________________________________
leaky_re_lu_5 (LeakyReLU)    (None, 16, 80, 16)        0         
_________________________________________________________________
conv2d_6 (Conv2D)            (None, 16, 80, 16)        2320      
_________________________________________________________________
leaky_re_lu_6 (LeakyReLU)    (None, 16, 80, 16)        0         
_________________________________________________________________
max_pooling2d_3 (MaxPooling2 (None, 8, 40, 16)         0         
_________________________________________________________________
conv2d_7 (Conv2D)            (None, 8, 40, 32)         4640      
_________________________________________________________________
leaky_re_lu_7 (LeakyReLU)    (None, 8, 40, 32)         0         
_________________________________________________________________
conv2d_8 (Conv2D)            (None, 8, 40, 32)         9248      
_________________________________________________________________
leaky_re_lu_8 (LeakyReLU)    (None, 8, 40, 32)         0         
_________________________________________________________________
max_pooling2d_4 (MaxPooling2 (None, 4, 20, 32)         0         
_________________________________________________________________
conv2d_9 (Conv2D)            (None, 4, 20, 64)         18496     
_________________________________________________________________
leaky_re_lu_9 (LeakyReLU)    (None, 4, 20, 64)         0         
_________________________________________________________________
conv2d_10 (Conv2D)           (None, 4, 20, 64)         36928     
_________________________________________________________________
leaky_re_lu_10 (LeakyReLU)   (None, 4, 20, 64)         0         
_________________________________________________________________
max_pooling2d_5 (MaxPooling2 (None, 2, 10, 64)         0         
_________________________________________________________________
conv2d_11 (Conv2D)           (None, 2, 10, 128)        73856     
_________________________________________________________________
leaky_re_lu_11 (LeakyReLU)   (None, 2, 10, 128)        0         
_________________________________________________________________
conv2d_12 (Conv2D)           (None, 2, 10, 128)        147584    
_________________________________________________________________
leaky_re_lu_12 (LeakyReLU)   (None, 2, 10, 128)        0         
_________________________________________________________________
max_pooling2d_6 (MaxPooling2 (None, 1, 5, 128)         0         
_________________________________________________________________
flatten_1 (Flatten)          (None, 640)               0         
_________________________________________________________________
dense_1 (Dense)              (None, 320)               205120    
_________________________________________________________________
leaky_re_lu_13 (LeakyReLU)   (None, 320)               0         
_________________________________________________________________
dense_2 (Dense)              (None, 160)               51360     
_________________________________________________________________
leaky_re_lu_14 (LeakyReLU)   (None, 160)               0         
_________________________________________________________________
dense_3 (Dense)              (None, 1)                 161       
=================================================================
Total params: 552,021
Trainable params: 552,021
Non-trainable params: 0
_________________________________________________________________
None

1305
Epoch 1/5
 - 12s - loss: 0.1298 - val_loss: 0.1244
Epoch 2/5
 - 9s - loss: 0.1172 - val_loss: 0.1132
Epoch 3/5
 - 9s - loss: 0.1143 - val_loss: 0.1035
Epoch 4/5
 - 9s - loss: 0.1020 - val_loss: 0.0958
…
