_________________________________________________________________
Layer (type)                 Output Shape              Param #   
=================================================================
conv2d_1 (Conv2D)            (None, 32, 32, 8)         224       
_________________________________________________________________
leaky_re_lu_1 (LeakyReLU)    (None, 32, 32, 8)         0         
_________________________________________________________________
conv2d_2 (Conv2D)            (None, 32, 32, 8)         584       
_________________________________________________________________
leaky_re_lu_2 (LeakyReLU)    (None, 32, 32, 8)         0         
_________________________________________________________________
max_pooling2d_1 (MaxPooling2 (None, 16, 16, 8)         0         
_________________________________________________________________
conv2d_3 (Conv2D)            (None, 16, 16, 16)        1168      
_________________________________________________________________
leaky_re_lu_3 (LeakyReLU)    (None, 16, 16, 16)        0         
_________________________________________________________________
conv2d_4 (Conv2D)            (None, 16, 16, 16)        2320      
_________________________________________________________________
leaky_re_lu_4 (LeakyReLU)    (None, 16, 16, 16)        0         
_________________________________________________________________
max_pooling2d_2 (MaxPooling2 (None, 8, 8, 16)          0         
_________________________________________________________________
conv2d_5 (Conv2D)            (None, 8, 8, 32)          4640      
_________________________________________________________________
leaky_re_lu_5 (LeakyReLU)    (None, 8, 8, 32)          0         
_________________________________________________________________
conv2d_6 (Conv2D)            (None, 8, 8, 32)          9248      
_________________________________________________________________
leaky_re_lu_6 (LeakyReLU)    (None, 8, 8, 32)          0         
_________________________________________________________________
max_pooling2d_3 (MaxPooling2 (None, 4, 4, 32)          0         
_________________________________________________________________
conv2d_7 (Conv2D)            (None, 4, 4, 64)          18496     
_________________________________________________________________
leaky_re_lu_7 (LeakyReLU)    (None, 4, 4, 64)          0         
_________________________________________________________________
conv2d_8 (Conv2D)            (None, 4, 4, 64)          36928     
_________________________________________________________________
leaky_re_lu_8 (LeakyReLU)    (None, 4, 4, 64)          0         
_________________________________________________________________
max_pooling2d_4 (MaxPooling2 (None, 2, 2, 64)          0         
_________________________________________________________________
dropout_1 (Dropout)          (None, 2, 2, 64)          0         
_________________________________________________________________
flatten_1 (Flatten)          (None, 256)               0         
_________________________________________________________________
dense_1 (Dense)              (None, 128)               32896     
_________________________________________________________________
leaky_re_lu_9 (LeakyReLU)    (None, 128)               0         
_________________________________________________________________
dropout_2 (Dropout)          (None, 128)               0         
_________________________________________________________________
dense_2 (Dense)              (None, 1)                 129       
=================================================================
Total params: 106,633
Trainable params: 106,633
Non-trainable params: 0
_________________________________________________________________
None

Epoch 1/10
 - 149s - loss: 0.0228 - val_loss: 0.0254
Epoch 2/10
 - 133s - loss: 0.0226 - val_loss: 0.0262
Epoch 3/10
 - 133s - loss: 0.0223 - val_loss: 0.0259
Epoch 4/10
 - 139s - loss: 0.0220 - val_loss: 0.0239
