_________________________________________________________________
Layer (type)                 Output Shape              Param #   
=================================================================
conv2d_1 (Conv2D)            (None, 80, 160, 8)        296       
_________________________________________________________________
leaky_re_lu_1 (LeakyReLU)    (None, 80, 160, 8)        0         
_________________________________________________________________
conv2d_2 (Conv2D)            (None, 80, 160, 8)        584       
_________________________________________________________________
leaky_re_lu_2 (LeakyReLU)    (None, 80, 160, 8)        0         
_________________________________________________________________
max_pooling2d_1 (MaxPooling2 (None, 40, 80, 8)         0         
_________________________________________________________________
conv2d_3 (Conv2D)            (None, 40, 80, 16)        1168      
_________________________________________________________________
leaky_re_lu_3 (LeakyReLU)    (None, 40, 80, 16)        0         
_________________________________________________________________
conv2d_4 (Conv2D)            (None, 40, 80, 16)        2320      
_________________________________________________________________
leaky_re_lu_4 (LeakyReLU)    (None, 40, 80, 16)        0         
_________________________________________________________________
max_pooling2d_2 (MaxPooling2 (None, 20, 40, 16)        0         
_________________________________________________________________
dropout_1 (Dropout)          (None, 20, 40, 16)        0         
_________________________________________________________________
flatten_1 (Flatten)          (None, 12800)             0         
_________________________________________________________________
dense_1 (Dense)              (None, 128)               1638528   
_________________________________________________________________
leaky_re_lu_5 (LeakyReLU)    (None, 128)               0         
_________________________________________________________________
dropout_2 (Dropout)          (None, 128)               0         
_________________________________________________________________
dense_2 (Dense)              (None, 1)                 129       
=================================================================
Total params: 1,643,025
Trainable params: 1,643,025
Non-trainable params: 0
_________________________________________________________________
None

Epoch 1/30
Epoch 00001: val_loss improved from inf to 0.03200, saving model to data/model.h5
 - 51s - loss: 0.0358 - val_loss: 0.0320
Epoch 2/30
Epoch 00002: val_loss improved from 0.03200 to 0.03028, saving model to data/model.h5
…
