_________________________________________________________________
Layer (type)                 Output Shape              Param #   
=================================================================
conv2d_1 (Conv2D)            (None, 80, 160, 8)        224       
_________________________________________________________________
leaky_re_lu_1 (LeakyReLU)    (None, 80, 160, 8)        0         
_________________________________________________________________
conv2d_2 (Conv2D)            (None, 80, 160, 8)        584       
_________________________________________________________________
leaky_re_lu_2 (LeakyReLU)    (None, 80, 160, 8)        0         
_________________________________________________________________
max_pooling2d_1 (MaxPooling2 (None, 40, 80, 8)         0         
_________________________________________________________________
conv2d_3 (Conv2D)            (None, 40, 80, 16)        1168      
_________________________________________________________________
leaky_re_lu_3 (LeakyReLU)    (None, 40, 80, 16)        0         
_________________________________________________________________
conv2d_4 (Conv2D)            (None, 40, 80, 16)        2320      
_________________________________________________________________
leaky_re_lu_4 (LeakyReLU)    (None, 40, 80, 16)        0         
_________________________________________________________________
max_pooling2d_2 (MaxPooling2 (None, 20, 40, 16)        0         
_________________________________________________________________
conv2d_5 (Conv2D)            (None, 20, 40, 32)        4640      
_________________________________________________________________
leaky_re_lu_5 (LeakyReLU)    (None, 20, 40, 32)        0         
_________________________________________________________________
conv2d_6 (Conv2D)            (None, 20, 40, 32)        9248      
_________________________________________________________________
leaky_re_lu_6 (LeakyReLU)    (None, 20, 40, 32)        0         
_________________________________________________________________
max_pooling2d_3 (MaxPooling2 (None, 10, 20, 32)        0         
_________________________________________________________________
conv2d_7 (Conv2D)            (None, 10, 20, 64)        18496     
_________________________________________________________________
leaky_re_lu_7 (LeakyReLU)    (None, 10, 20, 64)        0         
_________________________________________________________________
conv2d_8 (Conv2D)            (None, 10, 20, 64)        36928     
_________________________________________________________________
leaky_re_lu_8 (LeakyReLU)    (None, 10, 20, 64)        0         
_________________________________________________________________
max_pooling2d_4 (MaxPooling2 (None, 5, 10, 64)         0         
_________________________________________________________________
conv2d_9 (Conv2D)            (None, 5, 10, 128)        73856     
_________________________________________________________________
leaky_re_lu_9 (LeakyReLU)    (None, 5, 10, 128)        0         
_________________________________________________________________
conv2d_10 (Conv2D)           (None, 5, 10, 128)        147584    
_________________________________________________________________
leaky_re_lu_10 (LeakyReLU)   (None, 5, 10, 128)        0         
_________________________________________________________________
max_pooling2d_5 (MaxPooling2 (None, 3, 5, 128)         0         
_________________________________________________________________
dropout_1 (Dropout)          (None, 3, 5, 128)         0         
_________________________________________________________________
flatten_1 (Flatten)          (None, 1920)              0         
_________________________________________________________________
dense_1 (Dense)              (None, 256)               491776    
_________________________________________________________________
leaky_re_lu_11 (LeakyReLU)   (None, 256)               0         
_________________________________________________________________
dropout_2 (Dropout)          (None, 256)               0         
_________________________________________________________________
dense_2 (Dense)              (None, 1)                 257       
=================================================================
Total params: 787,081
Trainable params: 787,081
Non-trainable params: 0
_________________________________________________________________
None

Epoch 1/10
Epoch 00001: val_loss improved from inf to 0.01357, saving model to data/model.h5
 - 175s - loss: 0.0117 - val_loss: 0.0136
Epoch 2/10
Epoch 00002: val_loss improved from 0.01357 to 0.01311, saving model to data/model.h5
…
