_________________________________________________________________
Layer (type)                 Output Shape              Param #   
=================================================================
conv2d_1 (Conv2D)            (None, 64, 320, 8)        224       
_________________________________________________________________
leaky_re_lu_1 (LeakyReLU)    (None, 64, 320, 8)        0         
_________________________________________________________________
conv2d_2 (Conv2D)            (None, 64, 320, 8)        584       
_________________________________________________________________
leaky_re_lu_2 (LeakyReLU)    (None, 64, 320, 8)        0         
_________________________________________________________________
max_pooling2d_1 (MaxPooling2 (None, 32, 160, 8)        0         
_________________________________________________________________
conv2d_3 (Conv2D)            (None, 32, 160, 16)       1168      
_________________________________________________________________
leaky_re_lu_3 (LeakyReLU)    (None, 32, 160, 16)       0         
_________________________________________________________________
conv2d_4 (Conv2D)            (None, 32, 160, 16)       2320      
_________________________________________________________________
leaky_re_lu_4 (LeakyReLU)    (None, 32, 160, 16)       0         
_________________________________________________________________
max_pooling2d_2 (MaxPooling2 (None, 16, 80, 16)        0         
_________________________________________________________________
dropout_1 (Dropout)          (None, 16, 80, 16)        0         
_________________________________________________________________
flatten_1 (Flatten)          (None, 20480)             0         
_________________________________________________________________
dense_1 (Dense)              (None, 320)               6553920   
_________________________________________________________________
leaky_re_lu_5 (LeakyReLU)    (None, 320)               0         
_________________________________________________________________
dropout_2 (Dropout)          (None, 320)               0         
_________________________________________________________________
dense_2 (Dense)              (None, 1)                 321       
=================================================================
Total params: 6,558,537
Trainable params: 6,558,537
Non-trainable params: 0
_________________________________________________________________
None

Epoch 1/10
 - 79s - loss: 0.0270 - val_loss: 0.0246
Epoch 2/10
 - 77s - loss: 0.0237 - val_loss: 0.0237
Epoch 3/10
 - 77s - loss: 0.0224 - val_loss: 0.0237
Epoch 4/10
 - 77s - loss: 0.0223 - val_loss: 0.0232
…
