_________________________________________________________________
Layer (type)                 Output Shape              Param #   
=================================================================
conv2d_1 (Conv2D)            (None, 32, 32, 8)         296       
_________________________________________________________________
leaky_re_lu_1 (LeakyReLU)    (None, 32, 32, 8)         0         
_________________________________________________________________
conv2d_2 (Conv2D)            (None, 32, 32, 8)         584       
_________________________________________________________________
leaky_re_lu_2 (LeakyReLU)    (None, 32, 32, 8)         0         
_________________________________________________________________
max_pooling2d_1 (MaxPooling2 (None, 16, 16, 8)         0         
_________________________________________________________________
conv2d_3 (Conv2D)            (None, 16, 16, 16)        1168      
_________________________________________________________________
leaky_re_lu_3 (LeakyReLU)    (None, 16, 16, 16)        0         
_________________________________________________________________
conv2d_4 (Conv2D)            (None, 16, 16, 16)        2320      
_________________________________________________________________
leaky_re_lu_4 (LeakyReLU)    (None, 16, 16, 16)        0         
_________________________________________________________________
max_pooling2d_2 (MaxPooling2 (None, 8, 8, 16)          0         
_________________________________________________________________
conv2d_5 (Conv2D)            (None, 8, 8, 32)          4640      
_________________________________________________________________
leaky_re_lu_5 (LeakyReLU)    (None, 8, 8, 32)          0         
_________________________________________________________________
conv2d_6 (Conv2D)            (None, 8, 8, 32)          9248      
_________________________________________________________________
leaky_re_lu_6 (LeakyReLU)    (None, 8, 8, 32)          0         
_________________________________________________________________
max_pooling2d_3 (MaxPooling2 (None, 4, 4, 32)          0         
_________________________________________________________________
dropout_1 (Dropout)          (None, 4, 4, 32)          0         
_________________________________________________________________
flatten_1 (Flatten)          (None, 512)               0         
_________________________________________________________________
dense_1 (Dense)              (None, 256)               131328    
_________________________________________________________________
leaky_re_lu_7 (LeakyReLU)    (None, 256)               0         
_________________________________________________________________
dropout_2 (Dropout)          (None, 256)               0         
_________________________________________________________________
dense_2 (Dense)              (None, 1)                 257       
=================================================================
Total params: 149,841
Trainable params: 149,841
Non-trainable params: 0
_________________________________________________________________
None

Epoch 1/10
Epoch 00001: val_loss improved from inf to 0.02778, saving model to data/model.h5
 - 27s - loss: 0.0311 - val_loss: 0.0278
Epoch 2/10
Epoch 00002: val_loss improved from 0.02778 to 0.02627, saving model to data/model.h5
…
